HomeWork13/lstm_forecast_20_epochs.pth (torch, 46167 bytes, 5 tensors)

weight_ih_l0 f4 [200, 1]
000000 6f e7 4d 3f 89 dd 35 be e7 fc c5 be bc ae 5d bf
       0.80431265 -0.1776029 -0.38669512 -0.8659475
000010 10 ec 58 bf 07 05 0b bf 49 93 fd be 1b f7 dd be
       -0.847352 -0.54304546 -0.49526432 -0.4335259
000020 95 9f 27 3f ce d6 d7 be 95 2f 0e c0 cf a8 71 bf
       0.6547788 -0.4215607 -2.2216542 -0.94398206
000030 f1 b1 63 bf 6b fd 7a bf 4c 00 a6 be 9c 51 cd be
       -0.8894339 -0.98042935 -0.32422101 -0.40101326
000040 77 a6 37 3f 46 83 f7 3e 6d db 3c 3f f8 90 38 3f
       0.7173838 0.4834234 0.7377232 0.72096205
000050 87 5a 02 bf 00 00 ea be 81 e7 72 bf 30 6e 12 c0
       -0.50919384 -0.45703125 -0.94884497 -2.2879753
000060 7f 15 76 bf 61 c0 47 3f 2f 1b d7 3e 96 e6 93 3f
       -0.9612655 0.7802792 0.42012927 1.1554744
000070 dc ab ca be 01 2b f7 be a0 f9 03 be b2 55 6a bf
       -0.39584243 -0.48274997 -0.12888193 -0.9153701
000080 a2 4e f3 be 7f ee 80 bf 19 41 3f 3f 25 76 7c bf
       -0.4752093 -1.0072783 0.74708706 -0.98617774
000090 85 4f f1 be 39 43 c2 bf 8c a4 d4 be 70 cc 62 bf
       -0.4713098 -1.5176765 -0.4153179 -0.88593197
0000a0 69 d2 e6 be 3d 60 18 bf fd f1 ef bf 90 73 a8 be
       -0.45082405 -0.5952185 -1.8745724 -0.32900667
0000b0 b0 e1 e0 be d6 b0 15 3f 41 fc 4d bf cf 2e d4 be
       -0.43922186 0.58472955 -0.80463034 -0.41441962
0000c0 b3 39 6b bf 6d e4 67 bf 9a 00 94 3d 20 5b 75 3c
       -0.9188492 -0.90582925 0.07226677 0.014975339
0000d0 c8 1e ac 3c 35 c3 03 3e 00 c2 2c 3c ec 56 b4 bd
       0.021010771 0.12867434 0.0105443 -0.088056415
0000e0 06 d6 2e bd a0 ad d1 bb e8 42 5a 3d e2 42 f9 bd
       -0.042684577 -0.0063988715 0.053286463 -0.1217096
0000f0 20 a1 d7 bb 98 81 96 3c df b1 98 bd fc 30 98 bc
       -0.006580487 0.018372342 -0.07455801 -0.018578045
000100 c2 5a a6 3d 60 d5 da 3b c1 ab fa bd 76 45 91 3d
       0.081227794 0.0066782683 -0.12239791 0.07093327
000110 8a 78 f8 3d aa e4 80 bd c8 ea d3 bd 8c eb 0d 3d
       0.12132366 -0.06293614 -0.10347515 0.034648463
000120 b0 57 c4 3c 7c 78 0c 3d 1c 99 ec bc 89 e3 0c 3e
       0.023967594 0.03429459 -0.028881602 0.13758673
000130 1e ba 80 3d f0 37 d1 3c 9c 08 0e be 64 3b 81 3d
       0.06285499 0.025539368 -0.13870472 0.06310156
000140 60 aa d9 bb 1c 91 32 bd 6a b7 fb 3d 00 7a 0e 3d
       -0.0066426247 -0.04359542 0.12290843 0.034784317
000150 e9 36 00 3e 9b e3 e7 bd ca f2 88 bd 28 e5 83 bd
       0.12520947 -0.11322709 -0.06686933 -0.064401925
000160 ad 05 01 3e ca 31 c6 3d 62 c5 fc 3d b4 58 5b 3d
       0.12599821 0.09677465 0.12342335 0.05355139
000170 1f cb 0d 3e 00 f1 0e bb 20 e6 15 3c 3c ea 3e bd
       0.13847016 -0.0021811128 0.009149104 -0.046610102
000180 b6 ff e7 bd 1a 65 49 bd ea f3 cf 3d 70 ac 05 bd
       -0.1132807 -0.049168684 0.10153945 -0.032635152
000190 a3 09 1c bf 30 47 11 33 a0 a5 49 02 af 85 1a bc
       -0.60952204 3.3825188e-08 1.481468e-37 -0.009431287
0001a0 1c bd d8 38 10 d6 a8 80 e0 34 2b 83 b8 61 94 03
       0.00010334907 -1.5505155e-38 -5.031308e-37 8.721093e-37
0001b0 78 d3 46 3f 30 09 ab 82 ee 21 1e 3f 16 1a e9 ba
       0.77666426 -2.5131465e-37 0.6177052 -0.0017784263
0001c0 e2 55 36 38 95 e1 53 bb 80 64 a6 81 a2 27 d8 3e
       4.3472166e-05 -0.0032330502 -6.112298e-38 0.42217737
0001d0 bb 17 5d 3f 9c f0 30 3f cb 79 63 3f 5a 28 0c bf
       0.86364335 0.6911714 0.88857716 -0.5474907
0001e0 f6 68 35 b3 a0 3a eb 02 e1 82 41 b8 15 b7 47 bf
       -4.2237808e-08 3.4563796e-37 -4.6136676e-05 -0.78013736
0001f0 ed f5 fb 39 d5 31 60 3f 20 10 fb be 74 77 5d 3f
       0.0004805768 0.8757604 -0.4903574 0.86510396
000200 80 42 2f 81 80 2e 27 80 f1 d7 b4 be 44 49 61 3b
       -3.2190135e-38 -3.598265e-39 -0.35321 0.0034375945
000210 00 c8 df 81 99 ba 3f b7 fc 27 54 3f af de e2 b8
       -8.220425e-38 -1.1427933e-05 0.8287351 -0.00010817998
000220 00 55 7c 81 fc 07 52 3f 00 fb 2d 01 89 78 5e 3c
       -4.6346075e-38 0.82043433 3.1955165e-38 0.0135785425
000230 10 b4 1d 32 00 3c fe 00 47 bc b7 3e 87 b4 5c 3a
       9.179544e-09 2.334774e-38 0.35885832 0.00084192347
000240 b7 2d a8 31 a4 82 24 3f c8 f4 5a 03 40 6b 3c 03
       4.8946407e-09 0.6426184 6.4345437e-37 5.537135e-37
000250 65 1b db bb 81 e6 43 bb ce 0e 5f 3f ca 9a 28 be
       -0.0066866153 -0.002989203 0.87131965 -0.16465297
000260 14 f0 ba be bf 83 68 bf 65 5f 84 bf 26 7a 0a bf
       -0.3651129 -0.9082603 -1.0341612 -0.54092634
000270 20 0a 00 bf 94 25 b3 be 27 a0 33 3f 1f ed be be
       -0.5001545 -0.34989607 0.7016625 -0.37290284
000280 09 9b 0d c0 33 1e 63 bf 1f ae 81 bf 39 a5 5b bf
       -2.2125876 -0.88717955 -1.0131263 -0.85798985
000290 49 4d 9c be 8f d5 a9 be 50 3f 3c 3f 1b f3 0b 3f
       -0.30527714 -0.33170745 0.7353411 0.54667825
0002a0 f7 6a 40 3f c0 34 4b 3f 30 07 ea be be 92 c8 be
       0.75163215 0.79377365 -0.4570861 -0.39174455
0002b0 d9 94 75 bf a2 2b 1c c0 2d 2c 69 bf 30 01 51 3f
       -0.9593025 -2.4401631 -0.9108303 0.81642437
0002c0 d7 2a 04 3f 98 5c 9f 3f e1 22 c1 be a3 f3 de be
       0.5162787 1.2450132 -0.37721923 -0.43545255
0002d0 85 b7 e5 bd 6f 39 65 bf 11 9b ce be 67 6a 63 bf
       -0.11216644 -0.8954076 -0.4035268 -0.8883423
0002e0 89 81 4f 3f e1 e1 66 bf 9c 90 cb be ef 66 d5 bf
       0.8105703 -0.90188414 -0.39758766 -1.6672038
0002f0 45 4b c9 be c6 95 51 bf ce c2 bd be 1b 7e 0a bf
       -0.3931524 -0.8186916 -0.37062687 -0.5409867
000300 79 3f f5 bf bd fc 8a be 1b a6 c0 be 83 20 2e 3f
       -1.9159995 -0.2714595 -0.37626728 0.6801836
000310 dd da 5a bf 25 83 a9 be 62 b7 64 bf e0 1c 6a bf
       -0.8549021 -0.33107868 -0.8934232 -0.9145031

weight_hh_l0 f4 [200, 50]
000000 40 86 74 3b c6 8f 07 be 08 a2 da 3d da ad b5 bd
       0.0037311465 -0.13238439 0.10675436 -0.0887105
000010 7c c5 cf 3d 3a 88 42 bd 50 06 8b bd 1c 47 c9 bd
       0.10145089 -0.047493197 -0.067883134 -0.09828016
000020 46 6d b1 bd 03 69 90 bd ac 2c 4f bd 8c 11 6b bd
       -0.086634204 -0.070512794 -0.05057971 -0.05738978
000030 34 f2 bc bc fc e1 df bd 4c 40 1f bd cc 7d fe bd
       -0.02306471 -0.10931775 -0.038879678 -0.124263376
000040 b6 be ae 3d 00 a8 e6 ba 92 73 36 bd 80 63 5a bc
       0.08532469 -0.0017597675 -0.04454381 -0.013329387
000050 20 12 7f 3c 60 10 3b bc ac 4c e0 bc 70 db f6 bc
       0.015568286 -0.011417478 -0.02738031 -0.030133933
000060 fa 3f 46 bd b4 2d 00 be 2f dd a0 bd ec 5f 6f 3d
       -0.048400857 -0.12517434 -0.078546874 0.058441088
000070 1a 3a 48 bd 00 3c 54 3d 90 ea d1 bc 60 be 23 3c
       -0.048883535 0.051815033 -0.025624543 0.009994119
000080 ff c0 01 3e 34 72 77 3d 64 48 08 be 62 8b f7 3d
       0.12671278 0.060411647 -0.13308865 0.12087132
000090 b6 14 86 3d f8 10 da 3d ae 0a ed bd b9 8b 08 3e
       0.06546919 0.10647768 -0.115743026 0.1333455
0000a0 28 12 21 3d 76 ac d3 3d d8 ee 4a 3d 24 68 a8 bd
       0.039323956 0.10335629 0.049544185 -0.08222988
0000b0 c0 56 79 3d 42 90 de 3d c0 41 0e bc e2 ac cd 3d
       0.060873747 0.10867359 -0.008682668 0.100427404
0000c0 fe 84 d8 3d 78 b0 17 3d 40 38 5e bc 08 79 ba 3c
       0.10572241 0.037033528 -0.013563216 0.02276279
0000d0 7a 30 f1 bd 84 ae 37 bd f4 ec ab bd 70 99 61 3d
       -0.11776824 -0.044844165 -0.083948046 0.05507797
0000e0 de 0f 3d bd ca 23 71 bd 9c f2 ef bc 5c 14 dc 3d
       -0.04615771 -0.05887202 -0.02929049 0.10746071
0000f0 41 be db bd 80 ef 61 bd d6 15 19 bd 0a e6 11 bd
       -0.107296474 -0.055160046 -0.03737434 -0.035619773
000100 e0 4d 56 bd fc 1f f6 bc 98 b9 f6 bd 70 b7 d3 3d
       -0.05232036 -0.030044548 -0.12047118 0.10337722
000110 e0 ad 32 bd 90 cd 2e 3c 60 c3 8e 3c b0 fa 53 3c
       -0.04362285 0.010669127 0.017427146 0.0129381865
000120 f4 d2 b7 bc 8a 78 c9 3d 56 90 a9 3d b4 be 23 bd
       -0.022439457 0.09837444 0.08279483 -0.03997679
000130 3c 6e 3b 3d c0 30 ce bc a0 a1 19 bc b8 d9 81 3d
       0.045759425 -0.02516973 -0.009376913 0.06340355
000140 94 da 9b 3d 18 72 25 3d 6a b0 f8 3d 60 81 6f 3d
       0.0761005 0.04039201 0.12143023 0.05847299
000150 02 1d c4 bd 74 7f d5 3d 68 fa 8f bc be bf 80 bd
       -0.09575845 0.104247004 -0.017575458 -0.06286572
000160 5c 65 27 bd d3 63 b9 bd 22 cf ad 3d 0a 12 9a bd
       -0.04086815 -0.09052243 0.08486773 -0.07522972
000170 d4 aa c5 3d 22 10 a2 bd 08 f0 b2 3d 84 6e ca bc
       0.096517235 -0.07913233 0.087371886 -0.024710901
000180 c0 4d af 3c bc 9e 9d bc b0 d1 01 3d 50 de fa bd
       0.021399379 -0.01924073 0.031694114 -0.12249434
000190 20 73 ad 3d 06 8f 19 bd e8 97 6c bd ad f4 b8 bd
       0.08469224 -0.037489913 -0.057762057 -0.09031043
0001a0 b4 81 c0 bd 90 6d 0b be ce dd 8a bd d4 d1 4c bd
       -0.09399739 -0.13616014 -0.06780587 -0.050004795
0001b0 96 bd 19 bd be 7d 81 3d 08 19 4a 3d 17 54 f3 bd
       -0.03753432 0.063228115 0.049340278 -0.11881273
0001c0 48 66 1e 3d 40 68 d6 bd 76 83 ae bd 3e 48 f4 3d
       0.03867176 -0.10469103 -0.08521168 0.119278416
0001d0 58 42 3b bd aa 57 fa 3d a0 1b a8 3c 16 7e 76 bd
       -0.045717567 0.12223752 0.020520985 -0.06017884
0001e0 60 5f b9 3c 10 f4 15 bc b8 43 8a bc 30 89 85 3c
       0.022628486 -0.009152427 -0.016877994 0.016300768
0001f0 f1 6c 0d 3e c0 e8 4c bc 3a 49 64 bd f8 57 7a bd
       0.13811089 -0.012506664 -0.055733897 -0.06111905
000200 00 fc dd b9 8d 4d 82 bd ff 3e 95 bd 3c 3f d9 bd
       -0.0004234016 -0.06362448 -0.07287406 -0.10607764
000210 b6 5c f7 3d 50 58 bc 3c e6 2b fc bd d2 20 ae bd
       0.1207823 0.02299133 -0.123130605 -0.08502354
000220 9e a8 c6 3d 6b 0b f1 bd 7e 67 a7 bd a8 dd 10 3d
       0.0970013 -0.11769756 -0.081740364 0.035367638
000230 26 8e d9 bd 54 45 41 bd 28 cb 21 3d 3d 7e 01 be
       -0.10622816 -0.047185257 0.039500386 -0.12645812
000240 42 af e9 3d 27 3b 0f be a4 c6 10 be 38 e2 08 be
       0.11410381 -0.13987409 -0.14138275 -0.13367546
000250 c0 48 6b 3c bd 02 0a be a0 91 83 bc 76 03 d1 bd
       0.014360607 -0.13477607 -0.01606065 -0.10205738
000260 33 00 05 be 34 91 dc bd ce c7 6d bd 57 a3 0b be
       -0.12988357 -0.10769883 -0.058051877 -0.13636528
000270 d0 9d 5d 3d 74 3d d3 3d 35 fe 08 3e 40 15 3b bc
       0.05410558 0.10314456 0.13378222 -0.011418641
000280 84 01 2c 3d 54 3a 31 bd 10 08 a5 3d 20 05 53 3c
       0.041993633 -0.043268517 0.080581784 0.01287964
000290 92 cb e1 3d 5c e8 6e 3d 80 b1 8f bd 8b 6c 00 3e
       0.11025156 0.058327064 -0.07016277 0.12541406
0002a0 c0 cc 25 bb e0 e7 d4 bd 00 f8 f5 b8 38 9d f5 bd
       -0.0025299042 -0.10395789 -0.00011728704 -0.11992878
0002b0 6e 7e eb 3d 4d c7 07 3e 6e 6e f6 3d 76 3e 04 be
       0.11498724 0.13259621 0.120327815 -0.12914452
0002c0 c0 29 b7 3b 70 ad d0 3d 1a 77 4c bd 40 f3 92 bd
       0.005589694 0.101893306 -0.04991827 -0.071753025
0002d0 24 74 26 3d ce 94 dd bd 80 14 0f bc cc 30 c2 bc
       0.040638104 -0.10819398 -0.008732915 -0.023704909
0002e0 96 00 0d bd 02 d3 a4 3d d3 fc f0 bd a2 82 b3 bd
       -0.034424387 0.08048059 -0.117669724 -0.087651506
0002f0 9e 94 21 bd 80 dd bd 3c ca 76 13 bd 5c 0c b7 bd
       -0.039448373 0.023176908 -0.036001958 -0.08937904
000300 b2 73 d6 bd 8b 1c cb bd 8c 12 b1 bd 40 3a 62 bb
       -0.10471286 -0.099175535 -0.08646116 -0.0034519583
000310 e8 42 36 3d d0 ab 8b 3c 4b 3a 0c be 44 7e 41 bd
       0.0444974 0.0170497 -0.13694112 -0.047239557
000320 d6 ac 1f bd db 53 0a 3e f2 ab 81 3d 4c a9 e4 bd
       -0.03898319 0.13508551 0.06331624 -0.11165103
000330 10 55 ec 3c 95 33 04 be ec 4e c2 3d 7c fa 81 bd
       0.028849155 -0.12910302 0.094877094 -0.06346604
000340 b6 f8 35 bd 90 f1 4b bc 5e f0 16 bd 90 a0 fe 3c
       -0.044426642 -0.01244773 -0.036850326 0.031082422
000350 78 0a be 3c 90 38 cb 3d 4f 15 82 bd 16 ae a9 3d
       0.023198351 0.09922898 -0.063517205 0.082851574
000360 92 70 e3 3d 4e 5b 16 bd fc 23 8c bc e0 f1 92 bc
       0.111054555 -0.03670817 -0.017107002 -0.0179376
000370 6e 56 a6 3d 60 a0 b8 3b 42 b5 b8 3d b2 a4 4c bd
       0.08121954 0.0056343526 0.09018947 -0.049961753
000380 2c 2c f5 bc 81 09 b6 bd f4 73 08 3d 52 99 5a bd
       -0.02992829 -0.088885315 0.033313707 -0.053368874
000390 47 58 08 3e f4 ba d2 bc 46 47 ee 3d 16 30 8b bd
       0.13314925 -0.025723912 0.11634688 -0.06796281
0003a0 ee 9c dd 3d a6 17 23 bd 3c 6a c3 bd c8 d6 d8 3d
       0.108209476 -0.039817475 -0.09541747 0.10587841
0003b0 42 07 e5 3d 78 ba 14 3d 42 02 dd bd a0 da c0 3b
       0.11183025 0.036310643 -0.10791446 0.005885437
0003c0 76 74 72 bd 30 be 66 3c f8 9a d9 3d e4 42 5a bd
       -0.059193097 0.01408343 0.10625261 -0.053286448
0003d0 4c 25 af 3d c8 a5 dc bc 7e 6e c2 bd 08 d0 8a bd
       0.08552036 -0.02693452 -0.09493731 -0.0677796
0003e0 00 30 6b b9 f4 a6 9a bc 5e a0 b4 3d 32 ea d0 3d
       -0.00022429228 -0.018878438 0.0881965 0.10200919
0003f0 90 e2 ad bc e0 b7 8f bb f8 24 5b bd 40 92 d8 3b
       -0.021226197 -0.0043859333 -0.053502053 0.0066092312

bias_ih_l0 f4 [200]
000000 d6 6e 74 bf de 3b fd bf 8e f5 ff bf 49 ab e0 bf
       -0.9548162 -1.9783895 -1.9996812 -1.7552272
000010 cc 32 e9 bf 44 ca c8 bf 03 3b c2 bf aa d4 eb bf
       -1.8218627 -1.5686727 -1.5174259 -1.8424275
000020 2b 51 9d be 68 64 e0 bf fb df 38 bf cc a6 f0 bf
       -0.3072599 -1.7530642 -0.7221677 -1.8800902
000030 5f 9a ea bf aa c9 ea bf ed a0 dd bf fa 59 d6 bf
       -1.832836 -1.8342793 -1.7314736 -1.6746209
000040 b1 23 cc bc 5c 39 23 be 75 b3 67 bd 34 55 8a bf
       -0.024919363 -0.1593985 -0.056567628 -1.0807252
000050 14 f5 cd bf 26 5b dc bf e3 ed ed bf 4f 8e 4c bf
       -1.6090417 -1.7215316 -1.8588222 -0.79904646
000060 a3 c9 de bf 68 e4 73 bd 22 f7 84 bf 57 76 8c bf
       -1.7405285 -0.059543997 -1.0387919 -1.0973614
000070 12 48 e8 bf 16 d3 d5 bf e5 6d 08 c0 1f 87 d8 bf
       -1.8146994 -1.6705043 -2.1317074 -1.6916236
000080 ff 0e f9 bf de 87 e8 bf 97 6e e6 bd 44 a3 ec bf
       -1.9457701 -1.8166463 -0.11251562 -1.8487325
000090 76 f3 dd bf 0a 96 77 3e d9 dd c0 bf 64 65 cb bf
       -1.7339923 0.24178329 -1.5067703 -1.5890317
0000a0 65 9b f2 bf 13 16 b5 bf 8b 44 49 bf 2a 05 0e c0
       -1.8953673 -1.4147362 -0.78620213 -2.2190652
0000b0 de 3c fd bf 64 0a 0d bf 06 51 d7 bf e0 34 f6 bf
       -1.97842 -0.5509398 -1.6821601 -1.9234886
0000c0 1f 96 f0 bf e1 7c e5 bf f4 6f 95 3d 80 0c 7c 3d
       -1.8795813 -1.7928735 0.07296744 0.06153536
0000d0 0c f0 bf bd 38 7a b3 bd e7 dd 0b 3e e4 03 8e bc
       -0.09371957 -0.08763546 0.13658868 -0.01733584
0000e0 0c 9e 72 3d 48 f6 38 3d 00 e2 c3 3d dc 73 c1 bd
       0.059232756 0.045156747 0.095645905 -0.094459265
0000f0 60 bb 7b 3c 90 7f 9b 3d 60 71 95 3d 98 ad 0f be
       0.015364498 0.0759269 0.07297015 -0.14031065
000100 90 71 33 3c 09 73 b0 bd ac 19 c1 3d a0 9a d1 3d
       0.010952368 -0.08615691 0.09428725 0.102345705
000110 80 e9 16 3b 64 74 d0 3d e0 85 2a 3c f8 f9 84 bd
       0.002302736 0.1017845 0.010407895 -0.0649299
000120 d3 54 0e 3e 72 bd e8 3d fb 6c af bd 62 71 13 bd
       0.13899545 0.11364259 -0.08565708 -0.035996802
000130 34 24 d2 bd 34 65 79 3d a2 15 bd bd ca af f7 3d
       -0.102608114 0.06088753 -0.09232642 0.12094076
000140 a8 17 c1 3d a8 35 d0 3d cc e0 06 3d fc f8 79 3d
       0.0942834 0.10166484 0.032929227 0.061028466
000150 c4 c2 3d 3d f2 f2 c5 bd 40 05 54 3c dc 29 bb 3d
       0.04632832 -0.09665479 0.012940705 0.091388434
000160 32 00 1a bd 9d ee 0a 3e 94 0e 6e 3d e2 62 4c bd
       -0.037597843 0.13567586 0.05811937 -0.04989899
000170 c8 ad ca 3d ad 14 82 bd 1a 0f e9 3d 54 41 6b bd
       0.098964274 -0.063516 0.113798335 -0.05743535
000180 f0 cc 24 3c 00 42 5c 3b ea 47 eb 3d f2 dc ef 3d
       0.0100586265 0.0033608675 0.11488326 0.11712064
000190 87 39 a7 3e 98 70 fe 3d 25 bd 02 3e f3 f7 18 3d
       0.32661077 0.12423819 0.12767465 0.037345838
0001a0 c8 b9 06 3c 06 3a 23 bd 44 ff 37 bd 28 c2 a9 3d
       0.008223005 -0.039850257 -0.044921175 0.082889855
0001b0 da cf 87 bd 0e 5f f4 bb a3 39 3f bf ff 64 fa 3c
       -0.066314414 -0.0074576205 -0.7469732 0.030565737
0001c0 0c 8e d6 3b 93 e3 2f 3d 89 da 3b 3c 60 4f 76 be
       0.006547695 0.04294164 0.011465677 -0.24053717
0001d0 80 6d b0 3d b9 00 51 be b8 1f b0 3d 22 e3 b4 3e
       0.086146355 -0.20410432 0.085998 0.3532954
0001e0 e1 59 7c bd 1f 6c ed bd 8b b8 83 bd d9 02 1f 3f
       -0.061609153 -0.11592888 -0.06431683 0.6211372
0001f0 58 75 f9 3c e8 ce 41 3e 30 35 7e 3e bb 4e 6b be
       0.030451462 0.18926585 0.24824977 -0.22979252
000200 e1 a8 0f 3d 3e b5 77 bd ba 66 80 3e 89 6e 14 bd
       0.035073165 -0.06047558 0.25078374 -0.036238227
000210 d2 61 a1 bc ed 51 74 3d 39 17 df bb 68 e4 02 3d
       -0.019699965 0.059648443 -0.0068081883 0.031956106
000220 f7 cf 1a bd a3 98 85 bf dd f7 8c 3d ba bc 8b bc
       -0.037795987 -1.0437206 0.06883214 -0.017057765
000230 ce c4 43 3d ea 85 24 bd e8 97 8f bf 73 24 34 3c
       0.04779511 -0.040166773 -1.1218233 0.010995018
000240 20 41 b2 3c 73 be bf bd 6a 4f 54 3c b2 85 e9 bd
       0.02175957 -0.09362497 0.012958387 -0.114024535
000250 4d 1a 71 3d 6b 7d 53 3b 58 88 59 bf f8 7a fb bf
       0.058862973 0.00322708 -0.8497367 -1.9646902
000260 98 25 e3 bf 17 36 d9 bf c9 13 eb bf 27 f5 c2 bf
       -1.7745848 -1.6969632 -1.8365413 -1.5231065
000270 b1 9e c8 bf 84 c5 ec bf b9 c0 fe be 74 1c ef bf
       -1.5673429 -1.8497777 -0.4975641 -1.8680558
000280 1c 03 48 bf 1f cf f6 bf 90 00 04 c0 e8 12 ef bf
       -0.78129745 -1.9281958 -2.0625343 -1.8677645
000290 b0 7a ed bf f1 b2 c5 bf b1 e8 1b be a2 59 8c be
       -1.8553066 -1.5445234 -0.15225483 -0.27412134
0002a0 d4 b7 89 bd 20 ee 92 bf 8a ba db bf 7e a2 e3 bf
       -0.067245156 -1.147892 -1.7166302 -1.7783964
0002b0 d4 66 fd bf 5e 83 41 bf 15 f5 f8 bf a2 a7 9c be
       -1.9797006 -0.75591075 -1.9449793 -0.30596644
0002c0 b3 a5 83 bf c1 74 84 bf 3e 9e e5 bf 71 a8 e3 bf
       -1.0284942 -1.034813 -1.7938917 -1.7785779
0002d0 2a 65 f7 bf 2c ad e6 bf 19 40 f1 bf 3c 24 f8 bf
       -1.9327748 -1.8021598 -1.8847686 -1.9386058
0002e0 2a 44 d0 be 78 8e f2 bf 8d 46 f2 bf c1 5d 5c 3e
       -0.40677005 -1.8949728 -1.892778 0.2152014
0002f0 69 d6 c3 bf 84 61 d3 bf 2d c0 05 c0 10 de d6 bf
       -1.5299808 -1.6514134 -2.0898545 -1.6786518
000300 15 c2 12 bf 3c 04 01 c0 62 a5 f3 bf 25 ed 3b bf
       -0.57327396 -2.0158834 -1.9034846 -0.7340873
000310 ce e7 b7 bf 20 1f f0 bf 8a e7 de bf 38 d0 f7 bf
       -1.4367616 -1.8759499 -1.741441 -1.9360418

bias_hh_l0 f4 [200]
000000 fe 0d 84 bf c0 77 fb bf 3e f7 ee bf e5 34 ee bf
       -1.031677 -1.964592 -1.8669202 -1.8609892
000010 7a 91 f6 bf da 79 c2 bf 2b 61 d5 bf df 41 ee bf
       -1.9263146 -1.5193436 -1.6670278 -1.8613852
000020 50 05 21 be 60 e8 e9 bf 8b 3d 69 bf d6 95 f1 bf
       -0.15724683 -1.827404 -0.9110953 -1.8873851
000030 1e 92 e8 bf 16 6c e6 bf 9a d7 e7 bf de 51 c0 bf
       -1.8169591 -1.8001735 -1.8112671 -1.5024984
000040 71 5b 69 bd 04 d2 2b be f0 ed a7 bd 36 62 98 bf
       -0.05697197 -0.16779333 -0.0819968 -1.1904972
000050 89 70 e0 bf a4 00 e2 bf 29 33 f5 bf 97 e9 33 bf
       -1.7534343 -1.7656446 -1.9156238 -0.70278305
000060 03 72 f1 bf c9 27 c5 bd ad 16 51 bf 85 f7 8b bf
       -1.8862919 -0.09626729 -0.81675225 -1.0934912
000070 f4 55 ec bf 3e f3 ef bf d7 d1 06 c0 7e 02 f8 bf
       -1.8463731 -1.8746107 -2.1065576 -1.937576
000080 49 5a ec bf 28 b7 f5 bf 22 36 b8 be 42 95 f8 bf
       -1.8465053 -1.919652 -0.359788 -1.942055
000090 fc 0f d7 bf 61 8f 9e 3e 38 48 dc bf 7d 56 c4 bf
       -1.6801753 0.30968764 -1.720954 -1.5338894
0000a0 49 f4 f1 bf 71 64 c6 bf 93 41 27 bf 5d a2 ff bf
       -1.8902675 -1.5499402 -0.65334433 -1.9971424
0000b0 df ad 02 c0 80 85 12 bf ee dc b9 bf de 68 dd bf
       -2.0418622 -0.57234955 -1.4520547 -1.7297628
0000c0 ba a0 e2 bf 89 61 f2 bf 60 2d 93 bb 8c 84 a5 3d
       -1.77053 -1.8936015 -0.004491493 0.08081922
0000d0 b2 64 92 bd 70 61 5c 3d e8 01 af 3d 30 f0 de bc
       -0.07148112 0.05380386 0.085452855 -0.02721414
0000e0 48 2d d6 3d fc f7 94 bd 78 c2 9f 3d 4a 8b f6 3d
       0.104578555 -0.07273862 0.07800764 0.12038286
0000f0 e8 29 a5 bc 88 dd ef 3c 7c 70 c5 bc 6a 6b de 3d
       -0.020161584 0.029280439 -0.024101488 0.10860331
000100 88 af bb 3c 48 80 eb bc 1e fe fe 3d a6 bf d9 3d
       0.022910848 -0.028747693 0.12450813 0.10632257
000110 cc 29 ea bc a2 91 0d be 00 73 f3 bb f8 87 c4 3c
       -0.028584383 -0.13825086 -0.0074294806 0.023990616
000120 b8 52 58 3d b8 53 4e 3d 62 0d f1 3d f6 de fb 3d
       0.05281326 0.05037281 0.11770131 0.12298386
000130 5c d4 5c bd da 19 9c 3d c2 95 a9 3d 50 09 1a bd
       -0.05391346 0.07622118 0.08280517 -0.037606537
000140 61 8e ff bd fa 56 b1 3d c8 49 ca 3c ba 67 08 be
       -0.124783285 0.086591676 0.024693385 -0.13320819
000150 74 0a a0 3d 11 46 ee bd ee 88 c6 3d d8 d8 bf 3c
       0.07814494 -0.11634458 0.09694086 0.023418829
000160 40 95 99 bb 35 92 c9 bd c0 d6 9e 3c bb e6 98 bd
       -0.0046869814 -0.0984234 0.01938951 -0.07465883
000170 00 46 d3 39 e0 1f ac 3b 2e 66 31 bd 92 95 eb 3d
       0.0004029721 0.0052528232 -0.043310337 0.11503138
000180 ab 6b 0c 3e 4c 0f 94 bc 40 ec 18 bb a5 25 0d be
       0.13712947 -0.0180737 -0.0023334175 -0.13783891
000190 b2 be 13 3e 9e 70 fe bd 25 bd 02 be d6 fe 87 bb
       0.14428213 -0.12423824 -0.12767465 -0.004150252
0001a0 02 66 0c bc 06 3a 23 3d 44 ff 37 3d 28 c2 a9 bd
       -0.008569242 0.039850257 0.044921175 -0.082889855
0001b0 44 13 60 3d 0e 5f f4 3b 9b e2 51 bf d9 de c1 bc
       0.054705873 0.0074576205 -0.819864 -0.023665832
0001c0 ca 1d df bb 13 cf fe bc 89 da 3b bc 14 c8 9a be
       -0.006808971 -0.0311046 -0.011465677 -0.30230772
0001d0 26 f2 ef 3d 30 92 80 be 29 45 1e 3e a6 af b0 3e
       0.11716108 -0.25111532 0.1545607 0.3450901
0001e0 f2 59 7c 3d 1f 6c ed 3d c5 4b 84 3d bf 8e 20 3f
       0.061609216 0.11592888 0.064597644 0.62717813
0001f0 4a 33 04 bd f1 d5 c2 3a 02 5c cf 3e 38 3a 80 bd
       -0.032275476 0.0014864785 0.40499884 -0.06261104
000200 e1 a8 0f bd 3e b5 77 3d de 55 63 3e 02 5b bf 3c
       -0.035073165 0.06047558 0.22200724 0.023358826
000210 d2 61 a1 3c 6b c9 73 bd c6 bd 7d 3d 7d 72 01 bd
       0.019699965 -0.05951826 0.06194856 -0.031603325
000220 f7 cf 1a 3d 8b 67 8c bf dd f7 8c bd 4b 57 e0 bc
       0.037795987 -1.0969099 -0.06883214 -0.027385375
000230 d2 c4 43 bd ea 85 24 3d dc 93 92 bf a1 4d 3f bc
       -0.047795124 0.040166773 -1.1451373 -0.011676223
000240 24 41 b2 bc 43 5e 8f be 6a 4f 54 bc b2 85 e9 3d
       -0.021759577 -0.28001603 -0.012958387 0.114024535
000250 e3 9b 1a bd 6a 59 03 3c 12 8a 7b bf 76 6f f5 bf
       -0.03774632 0.008016923 -0.98257554 -1.917464
000260 36 a9 f0 bf 47 1f d4 bf 37 78 fd bf 46 eb b7 bf
       -1.8801639 -1.6572045 -1.9802312 -1.4368675
000270 63 6c be bf e6 d6 f9 bf bb 84 b5 be c4 33 e2 bf
       -1.4876827 -1.9518707 -0.35452828 -1.7672048
000280 d8 d7 25 bf d5 02 dc bf 87 bd f2 bf 3e fd ea bf
       -0.64782476 -1.7188364 -1.8964089 -1.8358533
000290 30 bc cc bf 19 cf c1 bf 9b 7f 88 be 34 02 a9 be
       -1.599493 -1.5141326 -0.26659855 -0.33009493
0002a0 f6 92 a1 bd b8 29 94 bf 60 b7 ca bf 9c 5b f2 bf
       -0.07889359 -1.1575232 -1.5837212 -1.8934207
0002b0 06 f4 f0 bf 42 ad 59 bf 9d 76 f6 bf ee 8e 63 be
       -1.882447 -0.85029995 -1.9254948 -0.22222492
0002c0 95 8a 82 bf b7 10 71 bf 88 a5 e2 bf 19 ea d6 bf
       -1.0198542 -0.9416613 -1.7706766 -1.6790191
0002d0 e6 b9 03 c0 cf 31 f3 bf b0 be eb bf 1a 04 f6 bf
       -2.0582213 -1.8999575 -1.8417568 -1.9220002
0002e0 c8 5c e5 be ef 66 ed bf 5b b3 e5 bf 00 49 a4 3e
       -0.4479735 -1.8547038 -1.794536 0.32086945
0002f0 ad 2d ca bf 29 7e cd bf 16 18 f0 bf d8 5b bc bf
       -1.5795189 -1.6054126 -1.875735 -1.4715528
000300 fd 0c 29 bf 67 65 0d c0 52 a3 fe bf 4b 6a 27 bf
       -0.66035444 -2.209314 -1.9893591 -0.65396565
000310 08 9d ba bf 9c 7c 01 c0 bc 61 db bf 5a 6c dd bf
       -1.4579172 -2.0232306 -1.7139201 -1.7298691

weight f4 [1, 50]
000000 54 c3 f4 be b5 c7 d9 b2 00 3e 16 81 c3 ac 85 bc
       -0.47805274 -2.5352941e-08 -2.7595132e-38 -0.01631773
000010 0f 69 d3 39 08 24 07 81 e0 d5 50 02 60 be 76 83
       0.0004032333 -2.4821435e-38 1.5342806e-37 -7.2511442e-37
000020 74 78 dc 3e 80 51 a2 81 85 cc 0d 3f 6e 66 9c bb
       0.43060648 -5.962635e-38 0.553902 -0.0047729528
000030 23 ce 10 39 b2 83 ee bb 80 fb 76 01 e6 ff db ba
       0.00013809702 -0.007278883 4.5363507e-38 -0.0016784638
000040 5c 21 f6 3e 93 0f b1 3e ae ea 03 3f 79 c4 94 be
       0.48072326 0.34582195 0.5152997 -0.29056147
000050 8b ae 5a b1 b8 8e 3c 83 03 8b 35 b9 10 e5 10 bf
       -3.1822391e-09 -5.5412068e-37 -0.00017313291 -0.5659952
000060 42 bc bb 3a 03 b8 0a 3f 5a 78 13 be 25 e7 73 3f
       0.0014323073 0.5418703 -0.14401379 0.95274574
000070 80 68 66 01 e0 1a d3 81 e4 9f 3a 3b 18 0e 04 3c
       4.2319303e-38 -7.754772e-38 0.002847665 0.008060001
000080 00 ce fd 01 9a 1a 38 b7 e3 8c 06 3f 83 5c ba b9
       9.323312e-38 -1.0973448e-05 0.52558726 -0.0003554561
000090 00 85 66 01 a6 ae 77 3f 00 82 97 80 ef a1 90 3c
       4.233975e-38 0.9675087 -1.3913795e-38 0.017655341
0000a0 23 67 d9 b2 00 8c 0c 00 04 5b 10 3f 3e bc 5f ba
       -2.5309026e-08 1.152248e-39 0.5638888 -0.0008534825
0000b0 a0 44 47 b2 bc 32 bd 3e ef f3 cf 04 80 15 e8 82
       -1.1598928e-08 0.3695277 4.8889484e-36 -3.4101677e-37
0000c0 b2 68 1f bc 8d dc ea bb
       -0.009729551 -0.007167405
