HomeWork13/lstm_forecast_20_epochs.pth (torch, 46103 bytes, 5 tensors)

weight_ih_l0 f4 [200, 1]
00000000: fe56 60bf 48c8 15bf 1889 7dbf 3ffd 41bf
00000010: 4fd1 36bf 8ceb 943f 0b80 00bf 1f91 02c0
00000020: 78d3 473f af77 e9be 515a dcbe dad0 3b3f
00000030: 78e5 3fbf 22c4 7fbf 1271 59bf 888f 033f
00000040: 393a 2abf 7886 633f f665 ddbe 3f99 19bf
00000050: a8c1 853f 8856 a4bf c285 07bf 24c1 6fbf
00000060: 0374 14bf ec94 88be d98b 32bf 792e 96bf
00000070: 3811 e93e 0820 adbe 753d ed3e 8778 d8be
00000080: e1ce 0dbf 6b03 11bf 2aff 7fbf 56ad 6abf
00000090: b186 d5be 9e55 6abf 344f 1ec0 da72 373f
000000a0: 8ab3 ddbe 033f 193f cdc8 24bf 1689 4ebf
000000b0: ef26 e5be 5895 70bf ceea 18bf bdf9 b4bf
000000c0: 7502 debe 88fc 2cbf 2670 e63d 3ae0 f4bd
000000d0: b3fc 07be 58e0 163d c89e 2a3d e2d9 26bd
000000e0: a0ee 1e3d f06a f93c 49e0 adbd 7cbd 03be
000000f0: ee90 ea3d f0f3 c4bc a2d5 83bd d0c8 bcbd
00000100: 045d 86bd 7cc0 693d 27e0 f9bd 7c03 dabc
00000110: b0df 0a3c 2cb6 c83d 449a a53d 507c 06bc
00000120: 829c d33d 2b70 f5bd 0089 e93b 18f1 493d
00000130: 2056 ccbb 2217 923d d448 563d 8a85 b23d
00000140: 88ea d5bc 7808 8b3c bcdd 873d ba7e c6bd
00000150: a84b ae3c 0c6e c2bd 46ab e23d 0489 013d
00000160: fa95 53bd 0acf 8d3d 303c 733c 40b0 6a3b
00000170: e884 f83c e480 9c3d 1c51 e0bd 8034 c03c
00000180: 541a cebd 0059 4abb 0021 3fbb a27a b93d
00000190: 959e 523c 982a 1481 ae68 1f3c 0055 2780
000001a0: 201c c082 25c6 853f 880b 6383 0e8b 113f
000001b0: 84d0 6d3f b076 8402 7f2a 9f30 70e4 55bf
000001c0: 085f 1b80 79fe 2bbc a65f 3abc 6210 3bbf
000001d0: 8058 2a01 68ab 6b3f 000f 8a00 f0ae 0a83
000001e0: e7d2 473f f010 b8bd c047 9d81 2fec 433c
000001f0: 0ea1 8e81 61fb dd3e 8049 5001 8852 d2bc
00000200: 67e8 0b3f bd4f c73e 59d2 2e3f a016 d102
00000210: 8059 2a01 4023 8901 addf 823b 9387 22bc
00000220: 05f4 c131 19d3 4d3c 940b 9d3f 2581 663f
00000230: 209f 1982 b938 4ebf c094 f781 0166 1e38
00000240: b03f b580 d07a 143c 5046 d602 1221 40be
00000250: 1867 6683 a079 ec82 2cb6 6abf 135e 0cbf
00000260: 9599 80bf 9f48 44bf 0955 31bf bab2 a13f
00000270: 09ed e5be cc42 06c0 95a1 493f 567b c7be
00000280: ca14 babe 8cf7 403f bac4 34bf 0ca9 62bf
00000290: 3c3a 75bf e9d8 0e3f 88e4 2ebf 7f91 753f
000002a0: 9879 c0be a235 04bf bb66 873f d1cd b7bf
000002b0: c2b3 fdbe 035f 61bf c1d3 01bf 8964 53be
000002c0: 78e5 21bf 2e2d bcbf 22a7 fa3e a5bf 8cbe
000002d0: 89e5 fe3e 7c06 ddbe bed5 e7be e829 06bf
000002e0: e913 57bf 44bc 72bf 6611 c2be 7c6d 59bf
000002f0: 00b7 2ac0 95b6 353f 0fb0 d1be af1f 233f
00000300: 4d26 28bf be80 3bbf 368b c9be 1626 73bf
00000310: da6b 0ebf de0a c9bf 3089 bcbe 96d2 20bf
-0.8763274 -0.5850873 -0.99037313 -0.7577705 -0.7141313 1.1634383 -0.5019538 -2.0401075
0.7805705 -0.45599124 -0.43037656 0.7336556 -0.74959517 -0.9990865 -0.84938157 0.51390886
-0.6649509 0.8887706 -0.43241853 -0.5999946 1.0449724 -1.2838907 -0.52938473 -0.93654084
-0.5798952 -0.26676118 -0.6974464 -1.1732932 0.4552095 -0.338135 0.4633595 -0.42279455
-0.553938 -0.5664584 -0.99998724 -0.9167074 -0.41704324 -0.9153689 -2.4735842 0.71659625
-0.4330104 0.59861773 -0.643689 -0.80677927 -0.44756266 -0.9397788 -0.59733284 -1.4138714
-0.4336125 -0.6757283 0.11251859 -0.1195683 -0.13279991 0.036835045 0.04165533 -0.040735133
0.03880179 0.0304465 -0.084900446 -0.12865251 0.114534244 -0.0240421 -0.064372316 -0.092179894
-0.0656071 0.057068333 -0.12200957 -0.02661299 0.008476183 0.098003715 0.080860645 -0.008208349
0.10332586 -0.11984285 0.0071269274 0.04930219 -0.006235853 0.071333185 0.052315548 0.08716877
-0.02611281 0.016971812 0.06634089 -0.0969214 0.02127631 -0.09493646 0.11067824 0.03162481
-0.0516567 0.06924255 0.014845893 0.003581062 0.030336812 0.076417714 -0.109529704 0.023462534
-0.100636154 -0.0030875802 -0.0029163957 0.090565935 0.012855192 -2.7213866e-38 0.009729547 -3.612077e-39
-2.8228007e-37 1.0451094 -6.672254e-37 0.56852806 0.92896295 1.946378e-37 1.1580851e-09 -0.8355169
-2.513649e-39 -0.010497683 -0.011375343 -0.73071873 3.1287564e-38 0.9205842 1.267868e-38 -4.0755374e-37
0.78056186 -0.089876056 -5.777565e-38 0.011958166 -5.2393664e-38 0.4335585 3.82563e-38 -0.02567412
0.5465149 0.38928023 0.68289715 3.0722776e-37 3.1288282e-38 5.0376433e-38 0.0039939494 -0.009920019
5.644781e-09 0.012562537 1.2269158 0.9004081 -1.1286331e-37 -0.805553 -9.0946916e-38 3.7765134e-05
-1.6645072e-38 0.009062484 3.1484831e-37 -0.18762615 -6.770927e-37 -3.4746893e-37 -0.9168422 -0.54831046
-1.004687 -0.7667331 -0.6927038 1.2632668 -0.44907406 -2.097827 0.7876218 -0.38961285
-0.36343986 0.75377727 -0.7061268 -0.88539195 -0.95791984 0.5579973 -0.6831746 0.95925134
-0.3759277 -0.5164434 1.0578226 -1.4359685 -0.49551207 -0.880356 -0.50713736 -0.2064382
-0.63240767 -1.4701288 0.48955637 -0.27489963 0.49784496 -0.4316901 -0.4528026 -0.52407694
-0.84014755 -0.9481852 -0.379039 -0.84932685 -2.6674194 0.70981723 -0.40954635 0.6372022
-0.6568344 -0.7324332 -0.39364022 -0.9497999 -0.5563332 -1.5706441 -0.36823416 -0.6282133

weight_hh_l0 f4 [200, 50]
00000000: f2ad 863d 7ee7 883d eb71 103e eb95 c0bd
00000010: 44f2 88bd b4e7 09bd 1721 dbbd 7ee8 d1bd
00000020: c054 89bb 2e48 b73d 679b fcbd 3875 953c
00000030: b029 2ebc 64bc b93d b821 4c3d 9c63 9bbd
00000040: 52de 50bd 30b6 6c3c 405c 2b3d e0ab fd3c
00000050: 0af4 4bbd 2f0b 013e a09a 7b3c de41 ac3d
00000060: d9c0 f7bd 346c 6ebd f47b 1c3d 92ca 75bd
00000070: cdc9 073e b20a e13d 9e49 9a3d c2aa ae3d
00000080: c29d cbbd c282 fc3d dda4 acbd 00d6 aabd
00000090: fe87 f33d 94a6 a9bd 7c47 a3bc 4291 40bd
000000a0: faa0 d4bd 4428 99bc 9645 7cbd 008d 30bc
000000b0: aaeb d33d f523 05be 5d79 fcbd cae2 09bd
000000c0: ad4f ffbd 6c02 0d3d acc4 31bd 19ff 08be
000000d0: bf68 073e a8f6 77bd 80f4 4c3c f024 0ebc
000000e0: 1aed 903d 8c3a a13d f8f4 2e3d 6cb8 60bd
000000f0: aa3e debd 32ca bcbd 642d e5bc 9440 0dbe
00000100: a055 023c 6f72 043e 9b68 84bd 60ff 483c
00000110: 3029 edbc 01a7 00be 7f06 063e ad74 89bd
00000120: 2c4b b43d 72ab 71bd e685 0ebe a423 4c3d
00000130: 1b12 f5bd 004a 043b 0f64 0fbe 4093 903b
00000140: 8e45 8c3d a4cf 96bc 7792 90bd b62f e63d
00000150: 3d5f a2bd 88d8 4a3d 34c8 02bd 605b 213d
00000160: a7b1 adbd 6655 a23d b0ad 6fbd 6c2d 0b3d
00000170: 2c5b d6bc 6e66 2fbd 0d3e 063e 044c 373d
00000180: 74e9 0bbd 9cdc 0a3d b056 c8bd d4d1 d8bc
00000190: 4fdb 96bd a64c d8bd 28c4 0abe 8cee a8bd
000001a0: 107d bc3c 321f f43d a3c1 0f3e 4c4f 03be
000001b0: 96c3 adbd f001 f4bd bbbf 98bd 3041 573c
000001c0: 469e 1dbd b499 0abd 4e37 db3d 2a4c cfbd
000001d0: 11cc 0dbe a063 193c 1dfa 093e c670 883d
000001e0: 964b cf3d 389d 4a3d d808 acbc f0fe 54bc
000001f0: 50eb 32bc e601 7ebd 80a2 803d 4003 653d
00000200: d0c3 5ebc 9c3c 783d 20e7 103c 5839 b03c
00000210: ea37 b5bd ac0e 06bd a0c3 403c 4038 a23c
00000220: 0a0e ef3d 40b9 f93c 088b 20bd 848c d6bd
00000230: ca58 9f3d c08c 62bc faf9 b0bd cee6 47bd
00000240: 8a53 0fbe e0ef ab3c 780f ad3c ccd8 7bbd
00000250: 1890 e8bd dc75 663d 8863 cd3c a04d 1f3c
00000260: 2af7 e83d 9a26 09be 008e 56bc c09b dabd
00000270: d6c9 4cbd 6ea1 f33d 80f5 153b 8029 58bb
00000280: 1f40 053e 3cdf 5b3d b81b e83c 0f21 00be
00000290: 1c96 8fbd 0ec5 bebd 2540 00be 08eb e13c
000002a0: 1056 6fbd 4408 9fbd 82d4 b1bd d803 a13d
000002b0: 2616 cb3d 03fc 083e 00ba 32bb 7451 f2bc
000002c0: 3062 2cbc f186 8ebd 694f 04be 982e e1bc
000002d0: 4a31 a7bd a81b bb3c b232 e13d 50a6 92bc
000002e0: 9801 e73c 685e 563d 886d 053d e416 9bbd
000002f0: 5a27 37bd e6c6 ff3d 85e8 f2bd f65b 47bd
00000300: 825f af3d 3c20 bcbc 3aaf 5dbd c04b 633d
00000310: fec5 ddbd ca00 b6bd fcd9 3d3d ee14 da3d
00000320: ac92 e2bd f292 b1bd 6464 853d 962e e53d
00000330: 9499 a7bd 087a 863d 0852 d8bc f08c bd3c
00000340: 3c64 3e3d c083 bebb 4a54 ea3d acf3 c23d
00000350: 006f 2abd 8ce1 dd3d be83 fe3d 7747 02be
00000360: 303a f9bd d8c5 183d 5819 513d 1557 0e3e
00000370: b43b e5bd 5089 c03d 682e e2bd 5a96 aa3d
00000380: eb78 063e 40ce 4ebd f44a dabd 8cad dbbc
00000390: 0a7c d33d 66ae af3d e0d4 833c 1692 f63d
000003a0: 9bf2 bbbd 31b8 efbd b018 c4bc b416 853d
000003b0: 7c1d c4bd 869b 7bbd 5634 d9bd d84a 58bd
000003c0: a291 e53d d0fa 253d 00cc 223c 9e3b e53d
000003d0: 204e 173d c06f a83b 02a9 08be 9b67 90bd
000003e0: dc83 c5bc aa16 e43d 80d1 763c cca8 0f3d
000003f0: ef67 dabd 82b9 8f3d 8008 a23d 98c7 04bd
0.06576146 0.06684779 0.14105956 -0.094035946 -0.066868335 -0.033668235 -0.10699671 -0.102494225
-0.004191011 0.08949314 -0.12334328 0.01824437 -0.010630056 0.09069136 0.049836844 -0.07587358
-0.05099327 0.014447734 0.041836023 0.030965745 -0.04979328 0.12601922 0.01535669 0.08411001
-0.1209733 -0.05820866 0.03820415 -0.06000764 0.13260575 0.10988368 0.075335726 0.08528663
-0.09942199 0.123296276 -0.08429883 -0.083415985 0.11891173 -0.082837254 -0.019931547 -0.04701353
-0.10382266 -0.018695958 -0.0615898 -0.0107758045 0.10347684 -0.13001998 -0.12327836 -0.03366355
-0.12466369 0.034426138 -0.04340045 -0.13378562 0.13223551 -0.060537964 0.012509465 -0.008675799
0.070764735 0.07872495 0.04271409 -0.05486338 -0.10851796 -0.09218253 -0.027975745 -0.13794166
0.007954985 0.12934278 -0.064652644 0.012267917 -0.028950304 -0.12563707 0.13088416 -0.06711707
0.088034004 -0.059001394 -0.13918266 0.049838677 -0.11966344 0.002018571 -0.14003013 0.004412085
0.06849204 -0.018409558 -0.07059186 0.11239569 -0.079283215 0.049522907 -0.03192921 0.039393783
-0.0848115 0.07926445 -0.05851525 0.033978865 -0.026166521 -0.042822294 0.13109608 0.04475023
-0.034158185 0.033901796 -0.09782159 -0.026467241 -0.073660485 -0.105614945 -0.1355139 -0.08248624
0.023008853 0.119200125 0.1403871 -0.12823218 -0.08484571 -0.11914432 -0.07458445 0.0131381005
-0.03848102 -0.03383799 0.10703908 -0.10121949 -0.13847376 0.009362131 0.13474317 0.06662135
0.10121839 0.04946634 -0.02100031 -0.013000235 -0.010920361 -0.06201353 0.062809944 0.055911303
-0.01359649 0.060604677 0.008844167 0.021511719 -0.088485554 -0.032728836 0.011765391 0.019802213
0.116725996 0.030483842 -0.03919509 -0.1047602 0.07780607 -0.013827503 -0.08641429 -0.048804097
-0.13996711 0.020988405 0.02112554 -0.06148605 -0.11355609 0.056264743 0.025071874 0.009723097
0.11375268 -0.13393632 -0.013095379 -0.10674238 -0.049997173 0.11896025 0.0022881925 -0.003298372
0.13012742 0.05367969 0.02833353 -0.12512611 -0.07011053 -0.09314929 -0.12524469 0.027577892
-0.058431685 -0.077652484 -0.08683111 0.07862061 0.09916334 0.13377385 -0.002727151 -0.029579856
-0.010521457 -0.06959332 -0.12920918 -0.027488038 -0.08163698 0.022840336 0.109959975 -0.01790157
0.028199002 0.052336127 0.03257516 -0.075727254 -0.044715263 0.12489109 -0.11860756 -0.048671685
0.085631385 -0.02296459 -0.054122187 0.055492163 -0.1082878 -0.08886869 0.046350464 0.10648523
-0.11063132 -0.08670606 0.065132886 0.11190526 -0.081835896 0.06566244 -0.026406303 0.023138493
0.04648231 -0.0058140457 0.11441858 0.09519133 -0.041609764 0.10834035 0.124274716 -0.12722574
-0.121693015 0.037298054 0.05104956 0.13900407 -0.11193028 0.0940119 -0.110440075 0.083294585
0.13132064 -0.050489664 -0.106588274 -0.026816152 0.10326393 0.08578186 0.016092718 0.120395824
-0.09177133 -0.117050536 -0.023937553 0.06498471 -0.09575936 -0.061427616 -0.106056854 -0.05280575
0.11209418 0.040522397 0.009936333 0.11193012 0.03693974 0.0051402748 -0.13345721 -0.07051011
-0.024110727 0.11137135 0.015064597 0.035073087 -0.10664355 0.07017805 0.079117775 -0.03241691

bias_ih_l0 f4 [200]
00000000: 9a48 ffbf c2aa bcbf bfbf fcbf 17c4 c3bf
00000010: b2ec c2bf b141 8bbf 5f4b e1bf c07e 84bf
00000020: 5c18 69be 4ff2 c2bf 6206 0dc0 3e35 09bf
00000030: 3542 c2bf 52d8 f7bf 0f3d f2bf bb28 d0be
00000040: 964c bfbf f387 6a3f 6e3e dabf 8f3b d0bf
00000050: 8d38 a5bf 136e 1dbf 15e1 cabf 1fa1 ebbf
00000060: feb2 d1bf 8995 ccbf f696 b4bf cf1a b8bd
00000070: 1a1b 8cbf 862b e5bf cf87 02bf 210a edbf
00000080: 8d53 adbf 6c00 bdbf 8a2e fcbf ed5e f5bf
00000090: 95ff 03c0 bbc7 ebbf 6673 35bf 4460 51bd
000000a0: 622c e5bf 41d4 01bf 1e09 d2bf efdc bdbf
000000b0: a314 ddbf d7fa f2bf ae2b bdbf a395 4fbf
000000c0: aaa7 edbf 691e b5bf a766 bbbd 101b d83d
000000d0: fbe5 ebbd d81c 9ebc c601 66bd 9e09 e53d
000000e0: c6b2 8dbd dc3f b7bd a078 ee3b 066e 37bd
000000f0: 9172 0e3e c0d5 f93b f9d2 03be 0030 67bb
00000100: 9014 0c3c 601c a93d 48fc 83bc 5cf6 ddbd
00000110: b38a d9bd c41b ddbd ec3a 95bd 8892 6e3d
00000120: 987c a43d 0031 fe3b da89 0bbe a054 3e3d
00000130: 9f0f 0f3e d433 9c3d 047b f4bd 602d 72bd
00000140: 108b 483d eee5 dfbd c7ae d0bd b215 e83d
00000150: c24f fa3d 4498 cabc 88ba 0abd 82bb 883d
00000160: 48d8 c03c e045 1f3c b862 ba3d 7225 8f3d
00000170: 22b8 10be e6c0 ef3d 9e95 06bd 7044 ecbc
00000180: 9a0b 24bd 3db4 083e 1e26 4dbd e918 cabd
00000190: 1948 15bd 7e83 c2bd b8a9 cdbd 30d1 8e3a
000001a0: 8ecf 26bb ea90 eebc 43e4 db3c dc19 5dbf
000001b0: d6b8 a2be 44a2 b9bd b354 733c 184a 90bc
000001c0: c0aa 1a3d f12f 0abd 88a8 2637 b047 493e
000001d0: 7ea8 b93d 8475 37bd f3d3 acbc 375e f43d
000001e0: 6ef2 92be 84da b73f 1d79 bb3d a3cc a1bc
000001f0: 40d2 afbd 92ff 64be ef8e 0b3d 46ae c3bf
00000200: 6258 cfbe f6f0 74be 465c cfbe ca98 dabc
00000210: 3cbc 22bd 8695 90bd a7af 89bd fc4e 6a3d
00000220: c293 043c 9517 a5bd d659 9abe 3e54 7dbe
00000230: 8043 e7bd ffdd 853e 4bdb 83bc 6545 6d3c
00000240: 4d6b d7bc 6ab0 a3bd f9ec b6bd 3816 a33f
00000250: 4ee6 40bd cd04 a6bb 58d8 efbf 9ae0 cabf
00000260: c023 fabf ccb7 b4bf c99f c1bf 85d0 74bf
00000270: dadd dcbf 6b10 77bf 86f1 6dbe ae7e dabf
00000280: bfee f6bf 775b dcbe b389 b9bf e47b f7bf
00000290: 16e7 f0bf ed16 39bf 4437 bcbf a254 733f
000002a0: ab41 ecbf dafc bdbf e982 90bf 022d 1ebf
000002b0: fe95 e4bf 3f75 e9bf 6f59 d5bf 0d6f dfbf
000002c0: e001 c8bf b059 0bbf b5a2 4fbf a2e5 dbbf
000002d0: d0b1 07bf 48e9 cbbf b574 c3bf c55d cebf
000002e0: 518b f8bf ffa7 01c0 4f88 fbbf 762c f0bf
000002f0: fdb9 4bbf 2f02 c0be 4d12 ddbf 3a4b ccbe
00000300: c52d babf 600e c3bf ae27 e2bf d640 f5bf
00000310: 517b c0bf 4f1c 52bf 59bc f5bf 7d7c babf
-1.9944031 -1.4739611 -1.9746016 -1.5294217 -1.5228484 -1.0879422 -1.7601126 -1.0351181
-0.22763199 -1.5230197 -2.2035146 -0.53596866 -1.5176455 -1.9362891 -1.8924884 -0.40656075
-1.4945247 0.9161369 -1.7050302 -1.6268176 -1.2907883 -0.61496085 -1.584994 -1.8408545
-1.6382749 -1.5983135 -1.410857 -0.08989488 -1.0945771 -1.7903907 -0.5098848 -1.8518716
-1.3541123 -1.4765754 -1.9701703 -1.9169594 -2.0624745 -1.8420328 -0.7087921 -0.051117197
-1.790417 -0.507145 -1.6409032 -1.4833049 -1.7271923 -1.89828 -1.4778955 -0.810877
-1.8566792 -1.4149905 -0.09150439 0.10552037 -0.11518475 -0.019300863 -0.056154035 0.11183475
-0.06918864 -0.08947727 0.007277563 -0.04478266 0.13910891 0.007624358 -0.12873448 -0.0035276413
0.008549824 0.08257365 -0.016111508 -0.10838005 -0.10622158 -0.107963115 -0.07286629 0.05824521
0.08031577 0.007757306 -0.13626805 0.046467423 0.13970803 0.07627073 -0.11937526 -0.059125304
0.048960745 -0.109325275 -0.10189586 0.11332263 0.12222244 -0.024730809 -0.033869296 0.06676389
0.023540631 0.009721249 0.0910086 0.06989564 -0.14132741 0.11706714 -0.03285753 -0.028841227
-0.040050127 0.13350005 -0.05008518 -0.098680325 -0.03644571 -0.094977364 -0.10042137 0.0010896083
-0.0025453302 -0.029121835 0.026842242 -0.86367583 -0.31781644 -0.09064153 0.014851737 -0.017613456
0.037760496 -0.033737127 9.93361e-06 0.19656253 0.090653405 -0.044789806 -0.021097159 0.119320326
-0.28700584 1.4363561 0.0915396 -0.019750899 -0.08585024 -0.22363117 0.03407186 -1.5287559
-0.40497118 -0.23920044 -0.40500087 -0.026684184 -0.039730296 -0.07059769 -0.06722956 0.05720423
0.008091869 -0.080611385 -0.30146664 -0.24739167 -0.112921715 0.26145932 -0.016095778 0.014481877
-0.026296282 -0.07992633 -0.08931918 1.2741156 -0.047094636 -0.0050664903 -1.8737898 -1.5849793
-1.954216 -1.411859 -1.5126888 -0.95630676 -1.7255204 -0.96509427 -0.23236665 -1.706991
-1.929161 -0.43038532 -1.4495147 -1.9334683 -1.8820522 -0.72300607 -1.4704366 0.95051014
-1.845754 -1.4842789 -1.1289951 -0.61787426 -1.7858274 -1.8238906 -1.6667918 -1.7455765
-1.5625572 -0.5443373 -0.81107646 -1.7179453 -0.53005695 -1.5930567 -1.5269991 -1.6122366
-1.9417516 -2.0258787 -1.9650973 -1.8763568 -0.7958067 -0.37501666 -1.727121 -0.39901143
-1.4545218 -1.5238762 -1.7668359 -1.9160411 -1.5037633 -0.82074445 -1.9198104 -1.4569241

bias_hh_l0 f4 [200]
00000000: cb53 e8bf bb5c b7bf 4195 f8bf 6d52 c4bf
00000010: 6abe a8bf a3a6 87bf 2a4b f2bf 6863 73bf
00000020: 460f 7abe 72cd c7bf aac5 02c0 bf8b c7be
00000030: 0d6f bcbf 7624 febf a369 f6bf f5ff babe
00000040: b9fd dbbf 516f 683f 683b e3bf 7137 bcbf
00000050: a3ef a9bf 8b59 16bf 419c d6bf c712 efbf
00000060: e8e2 c7bf a553 c8bf 8232 bbbf 9693 40bd
00000070: d0a0 89bf b41d f8bf fff9 22bf 6332 ecbf
00000080: 493c c3bf 001c c1bf 0efc f9bf 13d3 f1bf
00000090: 0457 00c0 3d3a ecbf 8623 5bbf ece5 18be
000000a0: b81a 02c0 6ee1 b6be 31a1 b6bf 20ee ccbf
000000b0: 0b2b d3bf 6711 febf ea58 cdbf 2dad 51bf
000000c0: a42f f5bf cbcf b3bf a4c4 1cbd 8032 9c3a
000000d0: e8c1 dd3d 7a14 85bd 2018 f5bd b862 5fbd
000000e0: 7af0 dbbd fa71 a03d a90c ebbd a05e c53c
000000f0: d68e fabd 03f1 063e 3d07 0a3e c86e af3d
00000100: c03f ed3b 000d 003b 20e6 783d daca 82bd
00000110: fe23 6ebd 883f 4fbd 00e3 b13c 5a31 903d
00000120: 20ef f73b 90d9 5c3d 8066 96bc 1481 953d
00000130: e1b4 f9bd 928f e53d d47f 053d 8cd7 8b3d
00000140: b067 c2bd d8bb 5e3d 68ab cfbc 4fbe 093e
00000150: 04e6 ccbd 3110 0c3e a8ee dd3d 2eda 9f3d
00000160: c81a c43d 9808 4e3d 8e8e 8abd 20ec 6cbd
00000170: 4c40 0bbd 74fd f1bc 90bc 703d 1065 853c
00000180: 1050 223c 2a8a 30bd 8e00 28bd a165 edbd
00000190: f891 493c 7e83 c23d 50b8 a43d 30d1 8eba
000001a0: 8ecf 263b d8f5 cfbc 43e4 dbbc 8293 5fbf
000001b0: 7b3b cebd 44a2 b93d b554 73bc 1e14 fc3d
000001c0: c0aa 1abd 731c 593d 6a4b af3c 08d2 9d3e
000001d0: 7ea8 b9bd 97e1 7fbc f3d3 ac3c 375e f4bd
000001e0: 248c a2be 0a1e b73f 1d79 bbbd ef3b 34bb
000001f0: 40d2 af3d b1e4 b3be ef8e 0bbd cc20 c5bf
00000200: f43d 80be b6da 8abe 6ba9 2fbe ca98 da3c
00000210: 3cbc 223d 8695 903d eb83 763d cca2 1dbd
00000220: ca93 04bc f820 6f3d 5c3e 9bbe 88ab 7fbe
00000230: 8043 e73d da1f 513e 4bdb 833c 2618 6ebc
00000240: 4d6b d73c c0c2 7f3d f9ec b63d 4041 b03f
00000250: 4ee6 403d cd04 a63b f048 e6bf 50a5 c6bf
00000260: 5655 fbbf 3714 c7bf a32e bebf 5e02 8cbf
00000270: 4697 e1bf 07ca 62bf cedd adbe eec0 cebf
00000280: c60e 03c0 1b92 16bf 386a c6bf d2d6 efbf
00000290: b463 f3bf 37fa 05bf 5845 b0bf a2ba 503f
000002a0: 065b e1bf 7de9 c3bf 9cb8 79bf cec9 1cbf
000002b0: c4e9 c7bf debd 02c0 818c d4bf e271 debf
000002c0: 52c0 b9bf f877 babe 34f6 82bf 9e2f fcbf
000002d0: d43b 0abf 0047 ddbf 0a99 d4bf dd31 bcbf
000002e0: 54c7 e6bf 6fd1 f1bf 87c6 e3bf c3c6 eabf
000002f0: 9d0c 62bf 05ee c5be 0789 efbf cca2 03bf
00000300: 1466 b4bf b585 ccbf 148f d1bf de67 f9bf
00000310: 5c62 d3bf d18f 50bf 5484 06c0 ab6f d4bf
-1.8150572 -1.4325174 -1.9420549 -1.5337654 -1.318311 -1.0597728 -1.8929188 -0.95073557
-0.24419889 -1.5609572 -2.0433145 -0.38973805 -1.472139 -1.9854877 -1.9250988 -0.36523405
-1.7186805 0.90794855 -1.7752504 -1.4704419 -1.3276256 -0.5873038 -1.6766435 -1.8677605
-1.5616121 -1.5650526 -1.4624789 -0.04701575 -1.0752201 -1.9384065 -0.63662714 -1.8452877
-1.5252773 -1.508667 -1.9530046 -1.889254 -2.005311 -1.8455273 -0.8560108 -0.14931458
-2.0328808 -0.35718864 -1.4267942 -1.601017 -1.6497511 -1.9849061 -1.604276 -0.8190487
-1.9155164 -1.4047788 -0.03827347 0.0011916906 0.10828 -0.06498046 -0.11967492 -0.054537505
-0.10739227 0.07834239 -0.11477024 0.024092972 -0.12234275 0.13177876 0.13479324 0.08566052
0.0072402656 0.0019538999 0.06076634 -0.06386347 -0.058139794 -0.050597697 0.021714687 0.07040663
0.0075663477 0.05391842 -0.018359423 0.0730001 -0.12192703 0.112090245 0.03259261 0.06828222
-0.09492433 0.05437836 -0.025350288 0.13451503 -0.100048095 0.13678052 0.10836536 0.07805286
0.095754206 0.050301164 -0.067654714 -0.057842374 -0.033996865 -0.029539801 0.058773577 0.016283542
0.009906784 -0.043100514 -0.041016154 -0.1159165 0.012302868 0.094977364 0.08042967 -0.0010896083
0.0025453302 -0.025385782 -0.026842242 -0.87334454 -0.10069939 0.09064153 -0.014851739 0.123085245
-0.037760496 0.053005647 0.021398265 0.30824304 -0.090653405 -0.01561775 0.021097159 -0.119320326
-0.31747544 1.4306042 -0.0915396 -0.0027501544 0.08585024 -0.35135415 -0.03407186 -1.5400634
-0.25047266 -0.27119988 -0.17154472 0.026684184 0.039730296 0.07059769 0.0601844 -0.038485333
-0.008091876 0.05838105 -0.30321014 -0.24967778 0.112921715 0.20422307 0.016095778 -0.014532125
0.026296282 0.062441587 0.08931918 1.3769913 0.047094636 0.0050664903 -1.7991009 -1.5519199
-1.9635417 -1.5553044 -1.4857982 -1.0938222 -1.762429 -0.8858952 -0.33958286 -1.6152627
-2.0477767 -0.5881669 -1.5501165 -1.8737433 -1.9014802 -0.5233492 -1.3771162 0.8153478
-1.7605903 -1.530563 -0.97547317 -0.6124543 -1.5618215 -2.0428386 -1.6605378 -1.7378504
-1.4511817 -0.36419654 -1.0231385 -1.9702032 -0.5399754 -1.7287292 -1.6609204 -1.4702717
-1.802958 -1.8892039 -1.7794961 -1.8341907 -0.88300496 -0.38658157 -1.8713692 -0.51420283
-1.4093652 -1.5978304 -1.6371789 -1.9484823 -1.6514392 -0.81469446 -2.1018267 -1.6596578

weight f4 [1, 50]
00000000: 1c73 a03b 38b1 2d01 6ef0 c43b 001c 4581
00000010: 6090 8582 ce22 753f e08c 5f02 4e05 093f
00000020: 4166 043f 80bc 4881 dc4d 43ac d39a debe
00000030: a0fb 7380 6272 bfbb 9c15 acbb 159d 9dbe
00000040: 0011 0000 25ed 5b3f 0014 af01 404e e901
00000050: 67c7 483f 916d fbbe 0092 b600 eab7 a23b
00000060: e436 4701 5be3 c03b 00ad 8980 5977 173f
00000070: 68bf 3e3e de51 c73b c4ed 893e 40e7 e201
00000080: 00d9 9580 20b4 6b02 ea1b cb3a 23d8 c6bb
00000090: c30b 0030 d72e 863b 29a3 243f 543a ee3e
000000a0: 000d 9b00 98ac c2be 4000 cc01 1cdb c833
000000b0: d094 b380 f99f c53b 7056 8602 f1ab e2be
000000c0: 98bc 7003 6086 0e82
0.0048965346 3.190223e-38 0.0060101068 -3.6203275e-38 -1.962546e-37 0.9575623 1.6423882e-37 0.5352372
0.5171853 -3.686944e-38 -2.7754387e-12 -0.43477497 -1.0651348e-38 -0.005842493 -0.0052515995 -0.30783907
6.098e-42 0.8590873 6.4313546e-38 8.5702966e-38 0.78429264 -0.4910703 1.6766435e-38 0.004965772
3.658991e-38 0.005886478 -1.2643524e-38 0.59166485 0.18627703 0.0060827574 0.26939213 8.3351116e-38
-1.3761334e-38 1.7316767e-37 0.001549599 -0.006068246 4.6582843e-10 0.004094939 0.6431146 0.46528876
1.4239165e-38 -0.38022304 7.4938124e-38 9.3530815e-08 -1.6491938e-38 0.006031033 1.9739143e-37 -0.44271806
7.0746156e-37 -1.0471076e-37
